mnist_fc_model_trained.pt (torch_old, 338491 bytes, 6 tensors)

mon.linear_module.U.weight f4 [87, 784]
000000 e4 6f 2b bd ea 09 a4 3b f2 f6 eb 3b 8f 0f d8 bc
       -0.041854754 0.0050060647 0.007201069 -0.026374606
000010 da 71 24 bb 95 8e 2f bd 0c 25 61 bc 48 f6 06 bd
       -0.0025092275 -0.042860586 -0.013741743 -0.032949716
000020 5b 77 4e bd cf 94 e4 bb 79 0f 64 3b 84 bf 50 bc
       -0.050406795 -0.006975747 0.0034799261 -0.012740973
000030 e6 ce f5 bb e7 9b 8d bc 87 f7 32 bd fe 00 47 3c
       -0.007501471 -0.017286254 -0.04369309 0.012146233
000040 c7 82 11 bd 99 3f 52 bb ed 78 46 bd f0 c0 1c bd
       -0.03552511 -0.0032081364 -0.048455168 -0.038269937
000050 58 5c 59 bd 69 23 9d 3b 6f d2 13 3c 3c 4d 27 bd
       -0.05306658 0.004795481 0.009022339 -0.04084514
000060 c1 31 4f 3c 34 58 f1 bc 3d d3 a5 3b db 40 44 bc
       0.01264614 -0.029461004 0.005060582 -0.011978353
000070 1b 8f e0 bc 9a 7e f3 bc 99 54 5d 3c 40 23 6a ba
       -0.027411988 -0.029723454 0.013508939 -0.0008931644
000080 8e 67 7b bc ef 36 6e 3c f7 a4 15 bd bd 04 16 ba
       -0.015344514 0.014539464 -0.036534276 -0.0005722752
000090 83 c3 13 bd b3 61 f4 bc f3 fa 0f bd 16 69 90 3c
       -0.036075126 -0.029831743 -0.035151433 0.017628234
0000a0 7d 49 0a bd 77 37 1f bc 5f b1 8d bc 5f 03 b0 3c
       -0.03376149 -0.009717814 -0.017296491 0.021485982
0000b0 4e f2 db 3c dc ff 44 3b 88 d3 6d bb 83 7f 2f bd
       0.026848938 0.003005973 -0.0036289413 -0.042846214
0000c0 a9 76 52 3a 93 49 01 bd 7a d8 38 bc 80 25 06 bd
       0.0008028546 -0.031564306 -0.011282081 -0.032750607
0000d0 95 23 fc bc 23 ef 1b 3c 84 ea 0c bd d0 0f 8d bc
       -0.030778686 0.009517464 -0.03440334 -0.017219454
0000e0 4e b3 43 bd 2b 2d 64 bd 7d 3f 65 bc 89 c8 47 3c
       -0.04777842 -0.055707138 -0.013992188 0.012193807
0000f0 ee 09 02 bd c0 55 cf bb 28 43 ec 3b 31 18 8d 3b
       -0.03174775 -0.006327361 0.007210154 0.0043058624
000100 69 4f bb bc 52 ca 0a 3d 45 79 44 3c 89 5e 74 3d
       -0.022865014 0.033884354 0.0119918035 0.05966047
000110 fe 24 f0 3c 15 12 8e 3d 80 a1 9b 3d b2 fa 99 3d
       0.029314514 0.069370426 0.07599163 0.075185195
000120 5b 0b af 3d 97 c1 fc bb 31 08 b1 bc 6d 54 4e bc
       0.08547088 -0.0077135074 -0.021610351 -0.012593371
000130 78 00 88 bc 7e ca ce bc 86 0d 39 bd bc d5 6f 3b
       -0.016601786 -0.02524304 -0.045178913 0.0036595901
000140 9b 36 d2 bc 71 8d 6c 3c 3a 36 41 bb 84 33 6d 3c
       -0.025660804 0.014438019 -0.0029481784 0.014477614
000150 c7 26 b4 bc f1 e7 4d bd 53 4a 20 bc ba 9b 5a bb
       -0.021991147 -0.050270025 -0.009783345 -0.003335698
000160 53 c1 46 3a a6 0b 44 3c b4 05 64 3d fe 3d 5f 3d
       0.0007581908 0.011965668 0.0556695 0.05450248
000170 96 2d 83 3d 4e d4 d6 3d 63 94 ca 3d a6 f8 ad 3d
       0.06405179 0.10489713 0.09891584 0.084946916
000180 02 95 f2 3d 6e 53 9d 3d c2 50 91 3d d6 e3 02 3d
       0.11844827 0.076819286 0.070954815 0.031955563
000190 26 90 75 3d 45 4b a1 bd fb 09 98 bd 24 6f fe bb
       0.059951924 -0.07875685 -0.074237786 -0.007764714
0001a0 70 fa 8a bd 27 35 1e bc 69 8d 42 3c 10 42 3f 3c
       -0.067860484 -0.009656227 0.011874535 0.011673465
0001b0 ec 61 69 ba 5f 85 ce bb f2 b6 1d 3c 82 77 82 bc
       -0.0008902836 -0.00630252 0.009626137 -0.015926126
0001c0 26 58 e5 bb b7 2d 75 bc f7 0f c7 bc 4c f3 98 bc
       -0.0069990335 -0.014964513 -0.024299605 -0.0186707
0001d0 1b 76 c6 ba 08 e4 38 3c 90 85 02 3d da 2e 61 3d
       -0.0015141399 0.011284836 0.031865656 0.05497632
0001e0 37 09 18 3e 17 de 16 3e 79 02 ea 3d 54 e0 13 3e
       0.14847265 0.14733158 0.11426253 0.14441043
0001f0 b7 09 d8 3d 73 34 a5 3d 01 6c e1 3d c3 3b f7 bb
       0.10548728 0.080666445 0.11006928 -0.007544966
000200 a0 6c 92 bc c1 e2 ea bc 1f 81 69 bd 33 c8 c8 bd
       -0.017874062 -0.028672578 -0.057007905 -0.0980381
000210 7c de 92 bd 79 3f 26 be b1 31 41 be 59 93 0a be
       -0.07171342 -0.1623515 -0.18866612 -0.13532771
000220 d7 2b bd bd d7 8e 5d bd 49 90 09 bd 1d fa dd bc
       -0.092368774 -0.0540913 -0.033584867 -0.027096802
000230 d1 96 1d 3c 2a a9 28 bd b5 88 5b bd 7f 10 22 bd
       0.009618477 -0.041176952 -0.05359717 -0.039566513
000240 c9 2d 10 bd b7 8b 8c bd 4a 94 b5 3b 27 43 2a 3d
       -0.035199914 -0.06862586 0.005541359 0.041567948
000250 7c 83 a1 bd 0c 8f a5 bd be fd 01 3b 74 9d ff 3d
       -0.07886407 -0.08083925 0.001983508 0.12481204
000260 7c 6b a8 3d 7d e3 d5 3d e7 3f a9 3d 80 4c f8 3a
       0.08223626 0.104437806 0.082641415 0.0018943697
000270 49 15 91 bd 11 01 4e bd ed 12 46 bd 70 2b c6 3c
       -0.07084138 -0.050293986 -0.048357893 0.024190634
000280 47 1b 70 3d d0 3e 01 be ec 41 56 be 77 10 3c be
       0.058619764 -0.12621617 -0.20923585 -0.18365656
000290 7f 6a de bd fe 5d 3f bd 46 99 48 bc 38 bd 17 bc
       -0.10860156 -0.046720497 -0.0122435745 -0.009261422
0002a0 10 84 a5 bc 45 9e 19 bd b6 4a 1b bd d0 84 38 bd
       -0.020204574 -0.037504453 -0.037913047 -0.045048535
0002b0 a8 6e 8b bc 06 ea 1e be 02 61 83 bd c4 b5 22 bd
       -0.017020538 -0.1551896 -0.06414987 -0.039724126
0002c0 49 b3 00 be c0 91 21 bd fe bf 67 3c 49 5d 8a 3d
       -0.12568392 -0.03944564 0.014144896 0.06756074
0002d0 11 9d c0 3d ab af 22 3e 5e bd 02 3e fa ef b9 3d
       0.09404958 0.15887325 0.1276755 0.09078975
0002e0 cd c8 11 bd 39 d5 c6 bc 4e ec 2b bd bd 37 d0 bd
       -0.03559189 -0.024271594 -0.041973405 -0.10166881
0002f0 86 0c ee bd 2f 44 62 be 7a 06 46 be c2 3d 31 be
       -0.116234824 -0.22096322 -0.19338408 -0.17308715
000300 35 eb 1d be a6 51 5f bd 5f c3 0f bd a1 d6 cb bc
       -0.15421756 -0.054521225 -0.03509843 -0.024882616
000310 10 2b 30 bd d0 ce 1b bd 1e 02 bc 3b 23 3a 53 bd
       -0.043009818 -0.03803903 0.005737557 -0.051569115
000320 2f e4 eb bc 9e 3b 19 be d0 be ed bd 9b df 0c be
       -0.02879533 -0.14964148 -0.1160866 -0.13757174
000330 5e 16 00 be 38 74 fd bd dd fe 10 bd c9 62 03 3e
       -0.12508532 -0.123756826 -0.035399307 0.12830652
000340 26 98 00 3e 57 73 3f 3e 40 09 16 3e 28 25 fb 3d
       0.1255804 0.18696342 0.14651966 0.12262946
000350 94 80 4f bd 6a 1c 01 be f2 31 03 bd 26 90 d1 bd
       -0.05065973 -0.12608495 -0.032030053 -0.10232572
000360 a2 68 d8 bd 43 98 08 be cc 89 04 be e2 ba 8d be
       -0.10566832 -0.13339333 -0.1294319 -0.27681643
000370 91 51 3c be eb 85 2f bd 2b 89 ec bc 62 8f 46 bb
       -0.1839049 -0.042852324 -0.028874 -0.0030297865
000380 15 13 5b bd f8 8f 6e bd e0 d5 a1 bd be 78 42 bd
       -0.053484995 -0.058242768 -0.079021215 -0.04747843
000390 cf be 7e bd c8 05 0c be 1b 59 49 bd b0 88 10 be
       -0.062193688 -0.1367408 -0.049157243 -0.14114642
0003a0 a9 1d c1 bc e2 63 90 bd f0 35 f5 3b 25 c9 2c 3d
       -0.023573713 -0.07050301 0.0074832365 0.042184014
0003b0 de 2d 60 3d e6 2e 01 3e 46 35 fe 3d ea 6b c5 bc
       0.054731242 0.12615547 0.12412505 -0.024099309
0003c0 23 7a 02 be c4 a1 3c be 3c 03 3c bd e8 ab 07 bc
       -0.12741904 -0.18421084 -0.045901522 -0.008280732
0003d0 47 7e 0a bd 3e 90 4f bd 6c 27 fe bd 1f be 2a be
       -0.033811834 -0.05067467 -0.12409863 -0.16674088
0003e0 d0 e8 68 be f3 1f 00 be f0 40 2e bd 34 99 21 bd
       -0.22745061 -0.12512188 -0.042542398 -0.039452747
0003f0 3d 03 a7 bc 17 e7 cd bc 15 3b 1f bd 57 5e 72 bd
       -0.020387286 -0.025134606 -0.038874704 -0.059172

mon.linear_module.U.bias f4 [87]
000000 92 f0 04 3d 82 0d e4 bc 3f 99 c9 bc 7d 6f 04 bc
       0.03245599 -0.027838472 -0.024609206 -0.0080832215
000010 25 1a 41 bc 59 2b 92 3c 99 0e 07 3d 66 5b 29 bd
       -0.0117860185 0.017842935 0.032972906 -0.04134693
000020 2a 16 2a bc 2c 7c a2 3c 26 ea 2c bd 36 d1 55 39
       -0.010381261 0.0198346 -0.04221549 0.000203912
000030 14 1a f0 bc b1 a6 a6 3c 79 42 b7 3c df b4 d2 b9
       -0.02930931 0.020343157 0.022370564 -0.0004018908
000040 ab 8e 1b bd 3d ab 17 3c 6f e9 52 3c 17 ed 83 bc
       -0.037977856 0.009257135 0.012873038 -0.016104264
000050 53 d5 fa 3c 2d 57 c7 bc 55 56 36 3d f8 da 9d bc
       0.030619299 -0.02433356 0.044515926 -0.019269451
000060 fc d9 d8 bc 3c dc ed 3a 40 5e bb bc 27 7f fd 3b
       -0.02647113 0.00181473 -0.02287209 0.007736105
000070 61 0a fc bc a9 2c 02 3b 8f 52 cc bc ea de fb 3c
       -0.030766668 0.0019863045 -0.02494171 0.030745942
000080 75 8a dc 3c c0 7b ca 3c 58 54 59 bb da 92 ed bc
       0.02692149 0.024717212 -0.0033161845 -0.029000688
000090 e8 6b 4b bc 46 4c 01 bd ab 2f f0 bc 3b 09 27 3d
       -0.012415864 -0.03156688 -0.029319605 0.040780287
0000a0 df d0 90 bc c1 96 af 3b c4 7d 67 3c 36 5b 2a bc
       -0.017677722 0.0053585474 0.014129106 -0.010397723
0000b0 0e c3 8f bd 8f 90 06 bc 18 1e 57 bd 7e c0 15 3c
       -0.070196256 -0.008213176 -0.052518934 0.009140132
0000c0 e7 75 37 bd b1 6b c2 bb 2a c8 cd bc 29 5b dd bc
       -0.044790175 -0.005933248 -0.02511986 -0.027021008
0000d0 d5 30 11 bd 63 55 3c 3c 32 c8 e8 3b 59 68 db bc
       -0.03544696 0.011494967 0.0071039433 -0.026783155
0000e0 39 13 3f 3c fe 6d 62 3d cb 27 87 3b 1a d4 1c bd
       0.011662298 0.055280678 0.0041246167 -0.038288213
0000f0 77 de 80 bb 7d 96 91 3c 28 2c c6 3c 3c 63 90 38
       -0.00393277 0.017771954 0.024190977 6.884939e-05
000100 39 15 10 bd e8 2a 6f 3c a0 12 29 3c c2 14 e6 bc
       -0.03517649 0.014597632 0.010319382 -0.02808607
000110 5a 0b ae bc 49 c1 6a bc 8f f0 0b 3d 4d 65 cc 3c
       -0.021245647 -0.014328309 0.03416496 0.024950648
000120 22 bd 82 bd dd f7 f5 3b ea 95 a0 3c 4c 67 4f 3c
       -0.063837305 0.0075063542 0.019602735 0.012658905
000130 17 24 20 bc 83 66 92 bc fc e2 dd bc 26 e1 f1 bc
       -0.0097742295 -0.017871147 -0.027085774 -0.029526304
000140 59 f9 00 bd e1 b4 63 3c 3c 2c a4 bc 71 c9 92 3d
       -0.031487796 0.013898105 -0.020040624 0.07167328
000150 2d df 2d bd d6 b7 9a 3c d2 75 c7 bb
       -0.042449165 0.018886488 -0.0060870433

mon.linear_module.A.weight f4 [87, 87]
000000 0e 55 2e 3d 5d 9a 99 3d 07 da 29 bd 85 74 1a bd
       0.042561583 0.075001456 -0.041467693 -0.037708778
000010 6b 12 d3 bd cc 0e ce bc f7 88 b5 3b fb a9 bb bd
       -0.10306247 -0.02515354 0.005540009 -0.091632806
000020 10 d7 92 bd 43 28 6b 3d a5 75 d3 bd 7f 78 64 3d
       -0.07169926 0.057411443 -0.10325173 0.055778977
000030 b1 11 aa ba 08 c3 b9 3d 96 41 72 bc 8f 22 2d be
       -0.0012975243 0.090704024 -0.014786145 -0.16907714
000040 63 93 50 3d 6f 15 46 bc 81 7d 1d be 61 24 9d 3d
       0.05092181 -0.012090071 -0.15379907 0.07672954
000050 06 20 77 bc 4c 0d d2 3d 7d 77 57 3e 2d 2a 89 3d
       -0.015083319 0.102564424 0.21041675 0.066974975
000060 26 b8 8b bd f7 5c fd 3d 30 41 38 bc df 61 b4 bd
       -0.06822233 0.12371247 -0.011246011 -0.0880773
000070 34 76 9b 3c 80 ca 52 bc 5d d4 1d 3d c8 4f c6 bd
       0.018977262 -0.012865663 0.038532604 -0.09683186
000080 bc 29 4b 3c 85 c5 1f be 10 f4 b3 3d 16 0b 8f 3b
       0.012400087 -0.15602691 0.087867856 0.004365335
000090 53 57 64 bc 4f f3 2b be 3f ca c6 3a b5 6c 11 be
       -0.013936835 -0.16792034 0.0015166475 -0.14201625
0000a0 a3 1d b6 bc 54 c4 cc bd b5 47 4e 3d de ad 1e be
       -0.022230929 -0.09998384 0.050361354 -0.15496013
0000b0 46 b3 87 3d 1e 7b f2 3d f5 60 87 3d d6 d2 b2 3d
       0.066259906 0.11839889 0.0661029 0.0873162
0000c0 2c 22 e0 3c f7 a1 b8 3b d9 f7 93 bd e7 3e b4 3d
       0.027360044 0.005634542 -0.072250076 0.0880106
0000d0 ec d9 12 3e 0a 20 b3 bd 37 e7 cd 3d 38 bc d7 bb
       0.14340943 -0.08746345 0.10053866 -0.0065837167
0000e0 9e 79 b1 3d 91 f9 99 3d e2 71 2e 3b ff 8d 40 3d
       0.08665775 0.07518304 0.0026618172 0.047010418
0000f0 4a 5e 3a be c2 b1 ec bd 6d 8e 54 3e 45 c9 4b 3d
       -0.18200031 -0.11557342 0.20757456 0.049752492
000100 ae c1 ee bd 3b fe e2 bb fe d1 85 3d c0 2f 8b 3a
       -0.11658035 -0.0069272793 0.065341935 0.0010619089
000110 45 b2 2a be 56 98 39 bd 3e a2 85 bd 72 6e 28 3d
       -0.16669567 -0.045311294 -0.06525086 0.041120954
000120 2f 40 8c 3c 80 68 b8 bd 16 15 b4 3c 84 0f 3d bd
       0.017120449 -0.09004307 0.02198271 -0.046157375
000130 bd 3d b7 3d 7a 52 23 3d c3 25 e2 bd 25 98 2e bd
       0.089473225 0.039873578 -0.11042359 -0.042625565
000140 e4 f4 0c 3e b3 7c 01 be e6 4a 3e 3e e1 3a d1 3c
       0.13765293 -0.12645225 0.18583259 0.025540771
000150 a7 08 17 be fb 35 17 bd e4 f5 52 3d b5 50 09 3c
       -0.14749394 -0.036916714 0.05150403 0.008381058
000160 5a ef 82 bd 7a b5 d8 3c 54 44 4f bc d3 93 40 3d
       -0.06393309 0.026453722 -0.012650568 0.047015976
000170 ef 76 ce 3d e8 30 26 be 5c 90 3e bc b4 88 ed 3c
       0.100812785 -0.16229594 -0.011631098 0.02899585
000180 1b 2e 65 3d 79 09 55 3d 21 15 3c bc 36 2c 96 3d
       0.055952173 0.052010987 -0.011479647 0.07332651
000190 ac 7d 37 be f0 f0 7a 3c fc 23 0d 3e 85 44 82 bd
       -0.17919034 0.015316233 0.13783258 -0.06360725
0001a0 12 fe a6 bd 58 29 b0 bb 52 cb d6 3d 63 9e c3 3c
       -0.08153929 -0.0053760223 0.10487999 0.023879236
0001b0 6f 91 d9 bc 83 da 98 3d e1 cb 15 be 53 39 b2 3d
       -0.026558606 0.07463553 -0.14628555 0.0870234
0001c0 b6 9c e9 3d 41 00 7c 3d 10 6a 34 bd 9f 10 f4 3d
       0.11406843 0.06152368 -0.04404646 0.11917233
0001d0 5f 7f 98 bc f3 40 55 3d 0d a8 f4 3d ad 28 47 3c
       -0.018615423 0.052063894 0.11946116 0.012155694
0001e0 3f 44 98 3a d5 2a c3 bd 67 1b 8f 3d 42 0e ae bd
       0.0011617019 -0.09529654 0.069876485 -0.08498813
0001f0 14 94 73 bd d6 1a c3 bb b3 c6 ce bc 4b 69 0c 3d
       -0.05946739 -0.005954127 -0.025241232 0.034280103
000200 1f ba 8e 3d 24 b0 d9 3d 70 0c 17 be 15 ec 30 3d
       0.069690935 0.10629299 -0.14750838 0.043193895
000210 f9 bd 4a 3d c5 a0 0b be 81 3b 94 bd a2 a6 4e bd
       0.04949758 -0.13635547 -0.07237912 -0.050451882
000220 93 1b e1 3d 76 08 ac bd f1 80 aa 3d 1c 6d 78 bc
       0.109915875 -0.08400051 0.08325375 -0.015162732
000230 50 3a 07 bc 38 55 51 bd 63 fe 80 bb 4b 34 75 3c
       -0.008253649 -0.05110666 -0.0039365753 0.014966081
000240 f2 4d 6f 3d fa e6 1d 3d 41 3d 3c be d4 e7 18 3e
       0.058423944 0.038550355 -0.18382742 0.14932185
000250 42 9c 1d 3c 4e 20 cb bd b1 b3 d8 bd 75 8c 8f 3d
       0.009619774 -0.09918271 -0.105811484 0.07009212
000260 bf 81 a4 bd ec 82 27 3d 48 23 38 3e e4 77 74 bd
       -0.080325596 0.04089634 0.17982209 -0.05968465
000270 f3 c1 f8 bc 7b 00 cb 3c 0c e4 11 3e 2b 6c f7 bd
       -0.03036592 0.024780503 0.14247149 -0.12081178
000280 cc f6 3c b9 1d a7 d5 3b 31 cc ca bd d7 44 00 be
       -0.00018021016 0.0065201656 -0.09902228 -0.1252626
000290 88 c7 ce 3d 4c 38 0f 3e 7b c1 83 ba bd b0 f3 3c
       0.10096651 0.1398632 -0.0010052169 0.029747361
0002a0 c0 7b 65 3e 09 56 9b 3d e6 2f 99 bb 88 cd 77 3d
       0.22410488 0.07584769 -0.0046748994 0.060498744
0002b0 9c 89 8e bd 83 56 00 be 53 95 c1 bd 28 41 17 3e
       -0.06959841 -0.12533002 -0.094523095 0.14770949
0002c0 6c 4b fa bc 43 d0 94 3d 3c 14 b9 3d 1b 48 b4 bc
       -0.030553542 0.07266285 0.090370625 -0.022007039
0002d0 1b 9d d9 3d 76 f4 1e 3d 3c 97 a7 3c d5 81 35 3d
       0.106256686 0.038807355 0.020457856 0.04431327
0002e0 d2 da 90 bd ec 38 d6 bc be 3c ba bd 50 89 38 bc
       -0.07072987 -0.02615019 -0.09093617 -0.011263207
0002f0 6e 2b ea bd 06 47 81 3d e9 4e 67 3d 12 1b 12 bd
       -0.11434065 0.06312375 0.05647174 -0.035670348
000300 ea 45 6e 3c f9 1f 06 bd 4a 9e 48 bd 71 82 6a 3d
       0.014543036 -0.032745335 -0.04897908 0.057253305
000310 34 c6 a8 3d 8a 17 34 3e a6 7a b0 bc 3a bd 0f 3d
       0.08240929 0.17587104 -0.021542858 0.03509257
000320 c6 6a 8a 3d 95 88 99 bc b4 89 5c 3d 6d 47 91 3d
       0.06758647 -0.018741885 0.05384226 0.070937015
000330 bf fb 28 3e 08 fb a2 3c 47 d7 9b bd e0 7a c3 3d
       0.16502284 0.019895092 -0.0760942 0.09544921
000340 04 ae bc bd 6a 35 0f bd 74 04 11 be 4c 85 de 3d
       -0.09212878 -0.03496305 -0.14161855 0.10865268
000350 f4 10 13 bd ad f1 83 bd bd 72 a0 3c 22 76 23 3d
       -0.03590484 -0.0644258 0.019585961 0.039907582
000360 b7 21 0a 3d b8 0b 0e 3d 6f 0e 0b bd 37 32 11 3c
       0.03372356 0.034679145 -0.03394931 0.00886207
000370 fb 4a eb bd 5a b4 d5 bd 0c 24 da 3c 03 c4 d0 3c
       -0.11488911 -0.1043479 0.026628517 0.02548409
000380 cf 70 e7 3c 87 6f 92 3d 0b 17 a9 3d a0 d2 6e bd
       0.028252034 0.071501784 0.08256348 -0.058306336
000390 9b bc 06 3c 6b 1a a2 bd dd ad 5a 3d 4c d9 45 3e
       0.008223678 -0.07915195 0.053388465 0.19321173
0003a0 15 cb 8b 3d e5 f0 9c bd f3 86 26 3d c3 51 92 3d
       0.06825844 -0.076631345 0.04065604 0.07144501
0003b0 9d 6b a2 bd 58 54 1d 3c 5a de fd bb 14 c0 25 3e
       -0.07930682 0.009602629 -0.0077474536 0.16186553
0003c0 d4 ef 3c 3d e2 23 83 bd e3 e7 02 bd e6 ad 2b 3d
       0.046127155 -0.064033285 -0.031959426 0.04191389
0003d0 54 3c 87 3c 99 49 15 be c0 fa 6a 3c 0e a8 da 3d
       0.016508259 -0.14578857 0.01434201 0.10676585
0003e0 7d fb 8d bc 4f 10 1d be e5 1c f7 bd 3e c1 26 3c
       -0.017331833 -0.15338252 -0.12066058 0.010177908
0003f0 51 ef 87 3d 4a 10 b1 3b a9 82 7c 3d e8 ac 03 bd
       0.06637443 0.005403553 0.061648045 -0.032147318

mon.linear_module.B.weight f4 [87, 87]
000000 38 11 9b bc e1 2e 81 bd 86 71 83 bd c3 66 3f 3d
       -0.018929109 -0.063077696 -0.06418137 0.04672886
000010 29 85 14 3d 7b b3 fa ba 29 fd a9 bd 49 7d c1 3d
       0.036259804 -0.0019126976 -0.083002396 0.09447724
000020 1b fc 63 bc 0e 7d e7 3c bc 37 c8 bc 65 2b 4c 3d
       -0.013915087 0.028257873 -0.024440639 0.04984607
000030 28 4d 14 3d 9e 05 39 bb 2e 1c 8e bd f0 29 d3 bc
       0.036206394 -0.0028232108 -0.069389686 -0.025776833
000040 3e 96 98 bd 64 c8 e7 3c db 8a 6f bc 5a 15 55 3c
       -0.074505314 0.028293796 -0.014620508 0.013005579
000050 1b 93 6f 3b 92 39 f4 bd d4 ae b7 bb a0 bc 5a bd
       0.0036556188 -0.11925043 -0.005605558 -0.053402543
000060 1f 51 c7 3d 58 99 9f bd f3 1c 02 3e 4b b6 93 bc
       0.097322695 -0.0779292 0.12706356 -0.01803126
000070 83 65 11 bd a2 24 93 3d 7c 92 91 bb 87 98 01 3e
       -0.0354972 0.071847215 -0.004442511 0.12655841
000080 64 c0 4a bc 84 47 76 3d 4f 99 14 be 26 7e 2a 3d
       -0.012374971 0.060126796 -0.14511608 0.04162421
000090 01 3c b6 bd 1b b5 69 bc 72 a1 ca 3d 30 6b a4 3b
       -0.088981636 -0.01426437 0.098940745 0.0050176606
0000a0 b3 76 e8 bc a6 79 c3 bc 6e 71 b9 bd 0f 65 67 bc
       -0.028376913 -0.023861717 -0.09054838 -0.014123215
0000b0 d1 29 95 3c 01 51 38 3d 1d 16 5d 3d f3 19 1c 3d
       0.018208416 0.044999126 0.053976167 0.038110685
0000c0 7d 0d 0f 3e 0c b3 86 3c 4f 19 cb 3c d9 42 a9 bc
       0.13969989 0.016442798 0.024792342 -0.020661758
0000d0 e1 31 7d bd 98 6a 20 be f7 65 9e 3d 56 f7 f4 3d
       -0.061815146 -0.15665662 0.07734292 0.11961238
0000e0 14 fa d1 3c 89 4c 85 3d 2b 33 c4 bc d6 f9 f9 bd
       0.025631942 0.065087385 -0.02395018 -0.122058555
0000f0 0b 78 a5 bd b8 3b 54 3e c4 fc f0 3c 21 0d 22 3b
       -0.08079537 0.20725906 0.029417403 0.0024727064
000100 58 a5 77 bd fb 41 de bd 80 82 78 3d 4a 60 2b bc
       -0.06046042 -0.108524285 0.06067133 -0.010459969
000110 bc af 21 3d 00 a3 a3 3d 1f 19 0c 3e 2e 7c 1b bd
       0.039474234 0.07990074 0.13681458 -0.037960224
000120 7c b8 79 bd d7 22 23 bd 36 d6 de 3c 38 4f 85 bd
       -0.060966954 -0.039828148 0.027201753 -0.065092504
000130 7b 3d a2 bd f0 f2 ff 3d 0e 86 d8 bd 38 74 ab bd
       -0.07921883 0.124975085 -0.10572444 -0.08371776
000140 75 e3 be 3d ad e3 c2 bd 32 5e e5 3d 53 02 7e 3d
       0.09320728 -0.09516082 0.11199607 0.062013935
000150 58 66 b0 3c c4 e6 9a 3b 27 0b 99 3c 78 73 02 3d
       0.021533176 0.0047272164 0.018682076 0.0318484
000160 b0 b6 e0 3b fd f2 f4 bd ed 1e ca bd d8 d8 4a bd
       0.0068577155 -0.11960409 -0.0986918 -0.049523205
000170 e6 72 a2 3d c4 dd d6 bc 90 97 7f bc f2 4c e5 bc
       0.079320714 -0.026228793 -0.0156001 -0.027990792
000180 52 39 f1 bd 71 6f a8 bd fc 7d ee bd 9c ae b4 bd
       -0.11778511 -0.08224381 -0.11645123 -0.088223666
000190 04 a4 9a bd a2 a5 87 3d 67 c0 12 3d da a7 d0 3d
       -0.07550815 0.06623389 0.03582802 0.10188265
0001a0 0b f2 42 3d 74 fc 91 3d 8e 08 71 3d de 13 df 3d
       0.04759411 0.0712823 0.05884605 0.10892461
0001b0 7a 1d 5d bc dd a9 ba 3c 61 55 72 3b 9d 51 d5 bc
       -0.013495797 0.022786075 0.003697716 -0.026039893
0001c0 f3 e1 0a 3e 80 90 f5 3d 4e 5a 17 3d b2 6e ed 3d
       0.13562755 0.11990452 0.036951356 0.11593379
0001d0 b6 e8 b9 3d 3d 7e 37 be 64 88 d8 bd bb 75 e6 3d
       0.09077589 -0.1791925 -0.105728894 0.11252924
0001e0 2a ed 65 bb 3b 5e 8c 3c 3c 41 e9 ba 75 ad b1 bc
       -0.0035083988 0.017134776 -0.0017795931 -0.021689156
0001f0 55 ac 95 3d 47 56 96 bd 34 fa 5e bd 2f ac fa bd
       0.0730826 -0.07340675 -0.05443783 -0.12239873
000200 06 3d ca bd 98 a2 2b 3d 5a c2 2d bd 01 81 8e bc
       -0.098749205 0.04190311 -0.042421676 -0.017395498
000210 62 c6 b0 bc 04 61 3d bb cc ca 1b bc 54 5e 10 3c
       -0.021578971 -0.0028896937 -0.0095088 0.008811552
000220 39 63 6e bc 1c 5e e3 3d 80 b1 1f be bc 04 02 bd
       -0.014550024 0.11101934 -0.15595055 -0.031742796
000230 3d 09 26 3b e7 18 cd 3b 14 25 79 3d 02 9c 1b 3e
       0.0025335096 0.006259072 0.060826376 0.15196231
000240 5d 14 27 bd b4 b0 75 3c 30 21 13 be 79 55 00 bc
       -0.040790904 0.014995743 -0.14368129 -0.007832878
000250 05 89 c7 bb 6c 60 df 3d b1 b1 fc 3c a2 06 e1 bc
       -0.006089332 0.10907063 0.030846449 -0.027468983
000260 05 fc a3 bd 1d 41 9d bd 78 88 53 bd 39 7c 80 bb
       -0.08007053 -0.07678435 -0.05164382 -0.0039210585
000270 9a bd f6 3d 80 92 a4 3d 91 b5 98 bd 9a 92 4a 3c
       0.120478824 0.08035755 -0.07456506 0.012364054
000280 08 1c ad 3d a6 17 f7 3c a6 48 d7 3b d4 d4 fd bd
       0.08452612 0.030162644 0.0065699397 -0.12394109
000290 3b 62 fc 3d 6c ff c1 bc e0 cd 39 3c 0e 37 7b bc
       0.123234235 -0.023681365 0.011340588 -0.01533295
0002a0 b1 6d d6 bd 7b 1c 2b 3e 77 11 a5 3d 5f d4 a0 bd
       -0.10470141 0.16710083 0.08059972 -0.078530066
0002b0 90 66 6d 3c 85 63 13 3d d1 61 4b bc e1 f0 2e 3d
       0.014489785 0.03598358 -0.012413458 0.04271019
0002c0 60 e1 d2 3b d2 ab 96 bc 54 0e 18 bd c3 97 8d 3d
       0.006435558 -0.018392477 -0.03712304 0.06913712
0002d0 a3 52 f5 3c 3e 2f ab bb da 6f d7 3d 57 46 6c 3c
       0.02994663 -0.0052241376 0.10519381 0.014421067
0002e0 b9 1f 4e 3d b0 7f 9b bd ff b7 13 be ca bf 9c bd
       0.05032322 -0.07592714 -0.14425658 -0.07653768
0002f0 4b 6e 56 bd 10 25 bc 3d 29 b3 b6 3d f9 37 c4 3d
       -0.052351277 0.091867566 0.08920891 0.095809884
000300 9c b2 e3 3d 1d 30 27 be 16 60 d6 bd c7 01 a7 bd
       0.111180514 -0.16326948 -0.10467546 -0.08154636
000310 6b 13 71 bd ef 0d 62 3d 9d e1 74 3d fb a0 ac bc
       -0.05885641 0.05518907 0.059785474 -0.021072855
000320 98 fd 81 3d 42 56 13 be a0 5a 16 be 6b 14 9d bc
       0.06347197 -0.14388373 -0.14683008 -0.019174775
000330 0a ff 09 3d f0 83 f1 bd d3 c6 85 3d c5 b7 c0 3d
       0.03369049 -0.11792743 0.06532063 0.09410051
000340 9d 4b b6 3d 9c 81 98 bd 59 62 64 bd 9b e6 a9 39
       0.08901141 -0.07446596 -0.055757854 0.00032406006
000350 78 e8 bb bd 6b 31 a8 3d d8 02 90 bc 41 2e a3 bd
       -0.09175199 0.08212551 -0.017579481 -0.079678066
000360 f6 32 e6 3d ce e7 da 3d c7 11 0e be f4 d4 93 bd
       0.11240189 0.106887445 -0.13873969 -0.07218352
000370 4c b3 58 3d 85 49 3a bd 20 d1 c1 3d 28 ed 2d bc
       0.052905366 -0.04548027 0.094637156 -0.0106156245
000380 18 00 12 be 3d 36 8e 3d 8b f5 23 3d b1 ee 04 be
       -0.14257848 0.06943939 0.04002909 -0.12981679
000390 5c c7 b7 bd 10 04 b0 3d d3 e1 c0 bb 6e 5e cf bd
       -0.08973572 0.08594525 -0.0058862953 -0.10125433
0003a0 91 dd 13 bc 57 89 b0 3b 26 d1 00 be 65 41 e6 3d
       -0.0090249935 0.005387466 -0.12579784 0.11242942
0003b0 33 19 27 3b 2f 96 bf 3d a2 e5 26 bd 90 84 6f bd
       0.0025497198 0.09354817 -0.04074634 -0.05847603
0003c0 e5 42 86 bd ca ac 9c 3c 4b 3d 35 3d 01 8c a9 bd
       -0.06555728 0.019125361 0.044247907 -0.08278657
0003d0 76 68 7f bd 32 f7 a0 3d 82 f7 26 bc e5 82 13 bd
       -0.06235548 0.07859649 -0.010190846 -0.036013503
0003e0 6b 5e a7 3c 37 c9 95 bc c6 90 53 3c 87 26 5a 3d
       0.020430764 -0.018284423 0.012912935 0.0532594
0003f0 dd c2 90 3d 39 b8 61 3d 51 6c 38 bd cb e9 ce bc
       0.07068417 0.05510733 -0.045025174 -0.025257966

Wout.weight f4 [10, 87]
000000 2b ef f3 bd f8 73 10 3e 49 b5 f8 be 42 d3 0f be
       -0.11910852 0.14106739 -0.4857581 -0.14045432
000010 94 39 b1 be 57 0e bf be a1 46 73 3e d4 ea 8f be
       -0.3461424 -0.37315628 0.23757412 -0.28108847
000020 ff 45 e6 3d b2 fb 72 be fb 26 23 3c 9f 75 d3 3d
       0.112438194 -0.23728827 0.009958024 0.10325169
000030 e9 41 99 be 9a 13 67 bc 16 a6 8f 3d 90 91 94 bd
       -0.29933098 -0.0141037945 0.070141 -0.07254326
000040 f6 43 4b be b2 75 ac be 30 50 54 3d 95 59 69 be
       -0.19850144 -0.33683544 0.051834285 -0.22788079
000050 18 17 63 be 31 f9 52 3d df 08 ef 3d 5c b0 88 be
       -0.22176778 0.05150718 0.11671614 -0.26697052
000060 1d fd 26 3e 0a 98 0c 3e 4b f8 17 be 3c 07 1a 3e
       0.16307493 0.13729873 -0.1484081 0.15041822
000070 47 93 29 3e c8 6b 4b 3d a4 8f b9 bd 11 2c c7 be
       0.16560088 0.049663335 -0.090606004 -0.38900807
000080 cf a6 0b 3e 4a d6 af be f0 6b a2 3d 91 38 0a 3e
       0.13637851 -0.34343177 0.07930744 0.13498141
000090 73 b7 2a be 4c b6 ab 3d e7 80 d7 3d 9e 57 04 be
       -0.16671543 0.0838438 0.10522633 -0.12924048
0000a0 a6 a7 88 be 14 e7 82 bd 6f ad 1d 3d e9 a3 b1 3d
       -0.26690406 -0.06391731 0.038495477 0.086738415
0000b0 63 89 a2 be dd 3d 55 be bf 9c 7e 3e 5e 0b 8b be
       -0.31745443 -0.2082438 0.24864481 -0.2715711
0000c0 8d 9e 59 3d aa c3 8d be b1 27 e6 3d 0e bb dc bd
       0.05312972 -0.27688342 0.11238039 -0.10777865
0000d0 84 09 5c 3e 0f 76 ab bd 5a e5 3b be fd 9b 8f be
       0.21488005 -0.08372127 -0.1834921 -0.28048697
0000e0 91 ab ff 3d 8f 27 9f bd 09 f2 3c be 7b 72 8e be
       0.124838956 -0.07771217 -0.18451704 -0.27821717
0000f0 45 7f 06 be 64 fe f9 3d 60 a4 ed 3d ad e6 30 be
       -0.13134487 0.12206724 0.11603618 -0.17275496
000100 d7 75 6a 3e 1e 7f 19 be 68 1a 1c 3e b0 30 8a be
       0.22896515 -0.14989898 0.15244448 -0.2699027
000110 16 a9 64 3e 00 7a 93 3d ea 8e b9 bd 5b 74 f7 bc
       0.22330126 0.07201004 -0.09060462 -0.03020685
000120 ea 26 0d 3e 20 7b 71 bc 80 81 ce 3d da 2e 06 3e
       0.13784376 -0.014738828 0.10083294 0.1310381
000130 87 13 d6 be 3f 4d 47 3d 00 7c 63 bd ad 0a d1 be
       -0.41811773 0.048657652 -0.055538177 -0.40828457
000140 6b 75 cc 3d 1e e4 76 3e 8a 5a 3c 3d 25 ba 25 be
       0.09983333 0.24110457 0.045984782 -0.1618429
000150 c1 17 b3 3d e5 9e 83 be 7a 68 85 3e 15 c4 47 be
       0.08744765 -0.25707164 0.26056272 -0.19508393
000160 dc de f7 bd 32 43 45 3c 3a 4f 48 3e 75 88 b3 be
       -0.12103054 0.012039946 0.19561473 -0.35065046
000170 11 9d 98 be ae f8 bf 3d ca 38 27 3c 17 18 ba be
       -0.29807332 0.09373604 0.010206411 -0.36346504
000180 a6 3c 35 3e 0f d5 51 be 28 de c5 be 86 82 49 3d
       0.17698917 -0.20491432 -0.38646054 0.049196742
000190 35 d7 41 3e 11 1a 00 bf 4d ff 86 3e 75 82 10 3c
       0.18929751 -0.50039774 0.26366654 0.008820166
0001a0 d4 a8 03 be 55 12 a5 bb 4c 1e bb be 14 9c a7 3e
       -0.12857372 -0.0050375857 -0.36546552 0.32736266
0001b0 70 70 a3 3c 67 6a a3 be 5f f6 28 3d 03 07 2f 3e
       0.019951075 -0.31917116 0.041250583 0.17092519
0001c0 5a 28 a9 3e 67 75 a0 3b 5a b4 86 bd f0 cf 83 be
       0.33038598 0.004896808 -0.06577368 -0.2574458
0001d0 c8 9b 0b 3e 61 54 03 3e e4 c7 44 3e 06 e6 8d be
       0.13633645 0.12825157 0.19216877 -0.27714556
0001e0 31 02 7e be 9b 5e 3d 3e 3e b4 07 3e ef ba 23 3e
       -0.24805523 0.1849312 0.1325235 0.15989278
0001f0 c8 c6 24 3d 57 19 5e 3d a2 33 c6 bd ce 12 61 3e
       0.040228635 0.054223385 -0.09677817 0.2197983
000200 80 49 cc 3d 1c ac 36 bd 1c 96 5e be b3 d5 a7 3d
       0.099749565 -0.04459773 -0.2173695 0.08195057
000210 e9 eb be 3b af 4d bd 3d 15 4b 29 bd 72 e4 98 3d
       0.0058264625 0.092433326 -0.04133137 0.074654475
000220 70 f3 6d 3d fc 67 15 bf c4 1b bf 3d 15 d6 d9 3d
       0.05809349 -0.5836179 0.09331468 0.10636536
000230 ea 7c 20 3e 9e ee 98 3d 4f c5 0c 3e 03 67 4a be
       0.15672651 0.074673876 0.13747142 -0.19765858
000240 0f 39 9a be 9d 8f 82 bd 50 ae 1e 3e 03 bf 22 3e
       -0.30121657 -0.06375048 0.15496182 0.15893178
000250 14 33 78 be df f6 7f be 25 15 57 3e f8 dc 8d be
       -0.24238235 -0.24996518 0.2100416 -0.27707648
000260 22 1d 8a be cc 2b b0 be 18 c1 2f be 2e 41 2c 3d
       -0.26975352 -0.34408414 -0.17163503 0.042054348
000270 3f 63 99 be e6 86 85 be fe 5c 70 3d 4e d5 57 3e
       -0.2995853 -0.26079482 0.058682434 0.21077463
000280 33 07 02 be 62 9c 15 3e dc 5e 7b be 00 66 5a 3d
       -0.12698059 0.14610437 -0.24547905 0.05331993
000290 24 cf 4e be 16 e2 49 3b b8 55 49 3e 76 b2 e8 bd
       -0.20196205 0.0030804924 0.19661605 -0.11362164
0002a0 1a 02 ac bd 85 13 a0 be ae a9 8a be c8 a8 69 3d
       -0.08398838 -0.31264892 -0.2708258 0.057045728
0002b0 ec 6c b4 bd 7f 57 d2 be ee e2 21 3e f7 a4 50 be
       -0.08809838 -0.4108238 0.15809223 -0.20375429
0002c0 ff 4b 3e bd 96 61 a2 bd db c3 a1 bc 78 ec 67 3e
       -0.046459194 -0.07928769 -0.019746711 0.226488
0002d0 39 32 a8 be f1 68 cc 3d 8e 4b 09 3c 98 84 fd 3d
       -0.32850817 0.099809535 0.00837983 0.12378806
0002e0 50 e7 93 bd 46 e6 3c 3e ce 6c 4a bd e3 7a 35 3e
       -0.07221854 0.18447217 -0.04942017 0.17722659
0002f0 b8 f0 96 bd d9 5f 80 3e 8d 49 91 3e 80 da 20 3e
       -0.07370132 0.25073126 0.28376427 0.15708351
000300 6e 3a 1e be 57 41 ed be f7 28 ae 3d da 01 18 bf
       -0.15451977 -0.46338913 0.08503907 -0.59377825
000310 53 da 3d 3d 03 0e 59 3e 7e ee 3f 3c cb 34 9a bd
       0.04635079 0.21196751 0.011714576 -0.07529601
000320 85 c9 29 bd f6 76 17 3e fd 68 10 3e 99 07 4e 3e
       -0.04145195 0.14791474 0.1410255 0.20120086
000330 0e d6 4b 3e 9c 8a 88 3d 26 b9 f0 bd c3 62 6c bd
       0.19905874 0.06667063 -0.11754064 -0.057711374
000340 28 93 69 be f3 ec fd 3d c1 03 e3 be c3 31 6f bd
       -0.22810042 0.1239871 -0.44338802 -0.058397066
000350 33 64 41 3e 2d 55 80 be 01 0b 83 bd e0 16 d8 3d
       0.18885879 -0.25064984 -0.06398583 0.10551238
000360 14 d8 7c be 09 13 e4 3d 03 e2 e9 be f7 52 b3 3d
       -0.24691802 0.11136443 -0.45680246 0.08756059
000370 db a7 40 bd c0 34 6c 3e ac 04 57 3d 28 9e 18 be
       -0.04703508 0.23066998 0.05249469 -0.14904082
000380 39 e1 e7 3d 6e 45 35 3d 1c ec 3b bd 35 e1 4a be
       0.11322255 0.044255666 -0.04587947 -0.19812472
000390 48 0a a6 be b6 a0 a8 3d 52 dd 85 be e3 1c 4c bc
       -0.3242972 0.08233778 -0.26145416 -0.012458059
0003a0 49 e5 70 be 31 ad ed 3d 93 99 d7 be 44 7c b5 3d
       -0.23524965 0.11605299 -0.42109355 0.088615924
0003b0 a4 74 f4 bd 28 51 45 3e 24 81 12 3e 98 1d 08 be
       -0.1193631 0.1926924 0.14307076 -0.13292539
0003c0 ac 3a 2b be d7 f4 4d be bf e1 15 bd c8 b2 81 3e
       -0.167216 -0.2011293 -0.03659224 0.25331712
0003d0 18 cf 50 be cc 91 14 3e 95 c7 35 3e d7 d6 e9 3d
       -0.203915 0.14508742 0.17751916 0.114179306
0003e0 db af 15 be f6 df 7f 3e 55 89 9f be 5d e7 80 3e
       -0.14617865 0.24987778 -0.31159464 0.25176516
0003f0 72 d5 a1 bd 06 37 81 be 2b 8c 62 bd 95 d5 6c 3e
       -0.079020396 -0.25237292 -0.055309456 0.2312835

Wout.bias f4 [10]
000000 25 4f 8f bd d0 63 bc bd 45 7d 0e be 63 f9 1a 3d
       -0.069975175 -0.09198725 -0.13914974 0.03783549
000010 e7 2a 45 3c 67 b8 71 3c 6b 0d da 3d 68 2d 0b 3c
       0.0120341545 0.014753438 0.106470905 0.008494712
000020 1d 01 7f ba 88 79 7b 3d
       -0.0009727644 0.061395198
